…
    (0): Conv1d(256, 256, kernel_size=(3,), stride=(1,))
    (1): ReLU()
  )
  (linear1): Sequential(
    (0): Flatten(start_dim=1, end_dim=-1)
    (1): Linear(in_features=277760, out_features=1024, bias=True)
    (2): ReLU()
    (3): Dropout(p=0.5, inplace=False)
  )
  (classifier): Linear(in_features=1024, out_features=4, bias=True)
)
------------------MODEL SUMMARY ---------------------
----------------------------------------------------------------
        Layer (type)               Output Shape         Param #
================================================================
            Conv1d-1            [-1, 256, 2175]           1,024
              ReLU-2            [-1, 256, 2175]               0
         MaxPool1d-3            [-1, 256, 1087]               0
            Conv1d-4            [-1, 256, 1085]         196,864
              ReLU-5            [-1, 256, 1085]               0
           Flatten-6               [-1, 277760]               0
            Linear-7                 [-1, 1024]     284,427,264
              ReLU-8                 [-1, 1024]               0
           Dropout-9                 [-1, 1024]               0
           Linear-10                    [-1, 4]           4,100
================================================================
Total params: 284,629,252
Trainable params: 284,629,252
Non-trainable params: 0
----------------------------------------------------------------
Input size (MB): 0.01
Forward/backward pass size (MB): 17.00
Params size (MB): 1085.77
Estimated Total Size (MB): 1102.78
----------------------------------------------------------------
None
…
